csharp_lab/pytorch_mnist.onnx (onnx, 438229 bytes, 6 tensors)

0.bias f4 [128]
0	0xbb1b5841	-0.0023703726
1	0x3c72c17f	0.014816641
2	0xbb88b905	-0.0041724467
3	0x3bf7d838	0.007563617
4	0xbc2f627b	-0.010704632
5	0x3ce6e5fc	0.028185837
6	0xbccdbd9d	-0.025114829
7	0x3cadb7e2	0.021205846
8	0xba9bd02d	-0.0011887603
9	0xbd0add83	-0.033902656
10	0x3b14edb3	0.0022724688
11	0xbc2e136b	-0.010624747
12	0x3cb37bd4	0.021909632
13	0x3bd1cced	0.006402603
14	0xbc30f34d	-0.010800195
15	0xbc125054	-0.0089302845
16	0xbbb38a02	-0.0054790983
17	0x3bb786ed	0.005600801
18	0xbccbab5b	-0.024861982
19	0x3c72cd39	0.014819437
20	0xbcbcbd4b	-0.02303948
21	0x3ca48e1d	0.020087296
22	0xbc605756	-0.0136926975
23	0xbcc0fcb2	-0.023557995
24	0xbc7102c6	-0.014710134
25	0x3c97c995	0.018528739
26	0x3c919397	0.017770572
27	0x3c96d174	0.018410422
28	0x3cf81b1a	0.03028636
29	0xb9913d37	-0.00027702164
30	0x3d022d5c	0.03178154
31	0x3cc77018	0.024345443
32	0x3ca7aa31	0.020466896
33	0x3ce269da	0.027638365
34	0x3aeb1a70	0.0017936956
35	0x3af1d994	0.0018451684
36	0xbd07ba6e	-0.033136778
37	0xbc27bb9a	-0.010237599
38	0xbcf26920	-0.029591143
39	0x3bfa7b3d	0.0076440857
40	0x3cfa5b15	0.03056101
41	0xbd0a2bef	-0.033733305
42	0xbcf6b09f	-0.030113516
43	0x3cf63e45	0.03005899
44	0xbbc62b0d	-0.0060476125
45	0xbc721ead	-0.0147778215
46	0xbd0d4572	-0.034490056
47	0xbc180e0a	-0.009280691
48	0xbb86e77e	-0.0041169515
49	0xbb66d8cd	-0.0035224438
50	0x3cb9bac7	0.02267207
51	0xbc1f18ed	-0.009710533
52	0x3cb76254	0.022385754
53	0x3ca693c9	0.020334141
54	0x3c3290ed	0.010898811
55	0x3ccae2e4	0.024766393
56	0xbb8696a3	-0.0041073128
57	0xbb7adba0	-0.003827788
58	0x3c8cb24e	0.017174866
59	0xbbca9300	-0.0061820745
60	0xbc1590af	-0.009128734
61	0x3c47ebb2	0.01220219
62	0xbca46ab8	-0.020070419
63	0xbcda3bc9	-0.026639836
64	0x3c8c2df7	0.017111761
65	0xbd029d9f	-0.0318886
66	0x3a35ff5a	0.00069426524
67	0xbc8f9563	-0.017527288
68	0xbc122c99	-0.008921766
69	0xbc637f05	-0.013885264
70	0x3c4173e0	0.011807412
71	0xbcfc5528	-0.030802324
72	0xbc735dcb	-0.014853905
73	0x3c8168d8	0.015797064
74	0x3c3ba8a6	0.011453783
75	0xbb5a2b73	-0.0033290058
76	0x3cea7a11	0.028622659
77	0x3d0c414b	0.034241956
78	0x3c57116d	0.013126713
79	0xbd057672	-0.03258366
80	0x3c7cc5ef	0.01542805
81	0xbceb22a1	-0.028703036
82	0x3a259373	0.0006316222
83	0xbd1bf7ea	-0.038078226
84	0xbc83c903	-0.01608706
85	0x3cb29e9c	0.021804146
86	0x3d025539	0.031819556
87	0xbbcf5077	-0.006326731
88	0x3c59d583	0.013295534
89	0x3b9dea85	0.0048192167
90	0x3c74aadc	0.014933314
91	0x3cee83f5	0.029115656
92	0xbc9f3f97	-0.019439502
93	0x3a2d2c34	0.0006606013
94	0x3c888432	0.016664598
95	0xbb949ee0	-0.004535541
96	0xba3da9fb	-0.0007235107
97	0x3cc0bc2d	0.02352723
98	0x3bdb55ff	0.006693601
99	0xbcef0934	-0.029179193
100	0x3c8b2ece	0.016990092
101	0x3ccf8ec5	0.025336633
102	0xbcd6a564	-0.026201911
103	0x3d04012f	0.03222769
104	0x3bdb941d	0.006701006
105	0xbd1dad58	-0.03849539
106	0xbd058d74	-0.032605603
107	0x3cd2fd4a	0.025755543
108	0xbc647905	-0.013944869
109	0xbce894f3	-0.028391337
110	0x3c8fb9ce	0.017544653
111	0x3abf4218	0.0014591841
112	0x3c8c5780	0.017131567
113	0xbd17dee0	-0.037077785
114	0x3c9eed60	0.019400299
115	0xbb879a78	-0.004138287
116	0xbcc094bf	-0.023508428
117	0x3bef69c0	0.0073063076
118	0xbce1d74b	-0.02756848
119	0xbba0e6f8	-0.004910346
120	0xbcfd5bd7	-0.030927582
121	0xbc04d98f	-0.008108511
122	0xbbb2862d	-0.005448124
123	0x3bce63a2	0.0062984983
124	0x3c8ce989	0.017201202
125	0x3c41f4d1	0.011838154
126	0x3b53b562	0.0032304158
127	0xbbd520c0	-0.0065041482

0.weight f4 [128, 784]
0	0x3ca39228	0.019967154
1	0x3ca0b970	0.019619673
2	0xbca5b390	-0.020227224
3	0xbd04fe27	-0.03246894
4	0xbcb02d72	-0.021506045
5	0x3c2c78ae	0.010526819
6	0x3b8c46c1	0.0042808955
7	0xbb9afe57	-0.0047300267
8	0xbce28520	-0.02765137
9	0xbcadc1ce	-0.021210577
10	0x3d022cb9	0.031780932
11	0x3ccd86a2	0.025088612
12	0xbcbc3c9b	-0.022978118
13	0xbc56bbb8	-0.013106279
14	0x3c939930	0.018017381
15	0xbc89e100	-0.016830921
16	0x3b581f21	0.0032977539
17	0x3cc84a3c	0.02444946
18	0xbcb6f80b	-0.022335073
19	0x3d06d249	0.032915387
20	0x3c1fdea2	0.00975767
21	0xbc7425d8	-0.014901601
22	0x3c918c0a	0.017766971
23	0xbce0471e	-0.027377661
24	0x3c0748d2	0.008257108
25	0x3ce7b0ac	0.028282486
26	0x3cbbbee2	0.022918168
27	0xbcf84130	-0.030304521
28	0xbd0b9ea8	-0.034086853
29	0xbb481a8f	-0.0030533408
30	0x3ad7b8f3	0.0016458317
31	0xbc155404	-0.009114269
32	0xbc2418aa	-0.010015646
33	0x3c31b49e	0.010846285
34	0x3cf8ffa8	0.030395344
35	0x3ceafcc8	0.028684989
36	0x3c39857e	0.011323331
37	0xbd0db4a7	-0.03459611
38	0x3d08c321	0.033389214
39	0xbb96b6eb	-0.0045994422
40	0x3c17ca96	0.009264609
41	0x3cf1c190	0.029511243
42	0x3c8664c2	0.016405467
43	0x3c378a7e	0.011202453
44	0xbb968923	-0.0045939847
45	0x3c595fca	0.013267467
46	0xbbe583ff	-0.0070042606
47	0x3c992a88	0.018697038
48	0x3cd180a6	0.02557404
49	0xbd106ed0	-0.03526193
50	0x3ce228ac	0.027607284
51	0xbc6e3a44	-0.014540259
52	0xbc4349d8	-0.011919461
53	0xbd121245	-0.035661954
54	0x3c10fbb6	0.008849075
55	0xbcf5afb4	-0.029991008
56	0x3bfa04b1	0.007629954
57	0x3d068e05	0.032850284
58	0x3d0414cb	0.032246392
59	0x3cab9a20	0.020947516
60	0xbbfcbe4f	-0.0077131162
61	0x3aba46b3	0.0014211744
62	0x3d0a8787	0.033820655
63	0x3bc3d269	0.0059760106
64	0x3caa1756	0.02076308
65	0xbd0175ad	-0.031606365
66	0x3c7aa6e6	0.015298581
67	0xbccb9f5b	-0.02485626
68	0x3c7c978a	0.015416989
69	0x3c3f0352	0.0116585065
70	0xbbf833ab	-0.0075745187
71	0x3c209c66	0.009802913
72	0x3d079fbb	0.033111315
73	0x3c49af4e	0.012309862
74	0x3b371f01	0.0027942064
75	0xbba69557	-0.0050837207
76	0x3cf774c8	0.030207053
77	0xbcf34387	-0.029695285
78	0xbc9f97b4	-0.019481517
79	0x3a8ff853	0.001098404
80	0x3c450b72	0.012026655
81	0x3ae2c813	0.0017302058
82	0xbb26399f	-0.0025363935
83	0xbcf1c499	-0.02951269
84	0x3ce08e18	0.027411506
85	0x3cbfbc98	0.023405358
86	0xbce778d2	-0.028255854
87	0xba9b88cd	-0.0011866331
88	0x3c91c02a	0.017791826
89	0x3cf1dbcc	0.029523753
90	0x3b52db61	0.0032174217
91	0x39be9a6d	0.0003635468
92	0xbca739e0	-0.02041334
93	0x3ceb502c	0.028724752
94	0x3c61d642	0.013783993
95	0xbc2494d8	-0.010045253
96	0xbc9daf94	-0.019248761
97	0x3ac4eb93	0.001502382
98	0x3cd49ad0	0.025952727
99	0xbcbd61e6	-0.02311797
100	0x3ceba224	0.028763838
101	0xbc85ead6	-0.01634733
102	0xbce01442	-0.02735341
103	0x3c990024	0.018676825
104	0xbcfbcf07	-0.030738367
105	0x3cda8bbc	0.026677959
106	0xba7d05fc	-0.0009652076
107	0xbd0918a7	-0.033470776
108	0x3cdb133a	0.026742566
109	0xbd02ba07	-0.03191569
110	0xbc6ca040	-0.014442503
111	0xbce41966	-0.027844142
112	0xbcd16610	-0.025561363
113	0xbc08b2c4	-0.008343402
114	0x3ca5a23c	0.020218961
115	0x3d11a90b	0.035561603
116	0xbc3c792e	-0.011503501
117	0xbc1dbd18	-0.009627603
118	0x3c7f6dbe	0.015590129
119	0x3ce2e730	0.02769813
120	0xbd103055	-0.035202343
121	0xbc388d4a	-0.011264155
122	0x3ce92f67	0.028464986
123	0x3c3c264e	0.011483742
124	0x3d080c3a	0.033214785
125	0xbc942415	-0.018083612
126	0x3c9fb298	0.01949434
127	0x3bb6b0ee	0.005575291
128	0x3c9f15fd	0.019419665
129	0xbc9df246	-0.019280564
130	0xbd0bfd23	-0.034176957
131	0xbacfb20d	-0.001584591
132	0x3cb710f4	0.022346951
133	0xbd0b4a07	-0.034006145
134	0xbd08e3bf	-0.03342032
135	0xbb8c3337	-0.004278566
136	0xbcff1989	-0.031140106
137	0xbc072ddc	-0.00825068
138	0x3c42d8f2	0.011892544
139	0xbd0ae2f2	-0.03390784
140	0x3c7d14aa	0.015446821
141	0xbb9c1507	-0.004763249
142	0x3c62c9f2	0.013842093
143	0xbcf70c87	-0.03015734
144	0x3c49c636	0.012315324
145	0x3d0be7e3	0.03415669
146	0x3a30ba90	0.0006741667
147	0x3cc5a1a0	0.02412492
148	0x3c09c575	0.008408894
149	0xbc9aa147	-0.018875731
150	0xbc16433f	-0.009171306
151	0xbd0b6348	-0.03403023
152	0x3c002633	0.007821607
153	0xbcfbe9d7	-0.030751152
154	0x3c94eb2e	0.018178549
155	0xb9a9e612	-0.00032405608
156	0x3cfdf00a	0.030998249
157	0x3d0e8fcb	0.0348051
158	0xbce13d87	-0.027495159
159	0x3cf68743	0.030093795
160	0xbcebdc4e	-0.028791573
161	0x3a83cd28	0.0010055648
162	0xbca32d14	-0.019918956
163	0x3c96de6c	0.018416606
164	0xbb096615	-0.0020965387
165	0x3c6ad968	0.01433406
166	0xbb8e1bc7	-0.0043368074
167	0x3baf35a9	0.005346973
168	0xbc06368a	-0.008191714
169	0x3c137f4e	0.00900252
170	0x3cf8d478	0.03037475
171	0xbc0d8520	-0.0086376965
172	0x3bf7af29	0.0075587225
173	0xbcc716eb	-0.02430292
174	0x3ca20750	0.019778877
175	0xbbd20747	-0.006409559
176	0xbbc9c909	-0.0061579985
177	0xbb08d746	-0.0020880266
178	0x3d0d9175	0.034562547
179	0xbc9fbc59	-0.01949899
180	0xbd056e4f	-0.0325759
181	0x3cbafa6b	0.022824487
182	0xbc8fc9f6	-0.017552357
183	0xbc2c5a48	-0.010519572
184	0x3b86c1bc	0.0041124504
185	0x3cc007de	0.023441251
186	0xbc5d0b6b	-0.013491492
187	0x3c74fa86	0.014952308
188	0x3cb075a2	0.021540467
189	0x3d0f246d	0.034946848
190	0x3d0d292d	0.034463096
191	0x3cbb79b9	0.02288519
192	0x3ce52003	0.027969366
193	0x3b4c528a	0.0031177127
194	0xbca5a396	-0.020219605
195	0xbcc00dae	-0.023444023
196	0xbc560a64	-0.013064001
197	0xbc53324e	-0.012890412
198	0x3cf225a8	0.029558972
199	0x3d09e5bb	0.033666354
200	0x3c06f232	0.008236455
201	0x3cdc940e	0.026926067
202	0xbce8f39d	-0.028436476
203	0xbba677ab	-0.0050801835
204	0x3ced110f	0.028938798
205	0x3b9b237c	0.0047344547
206	0xbcd9c88a	-0.026584882
207	0xbc9bede8	-0.019034341
208	0x3ce81618	0.028330848
209	0xbc901d29	-0.01759203
210	0x3ccfde5b	0.025374582
211	0x3bf19e80	0.007373631
212	0x3be642c9	0.0070270044
213	0x3c9219d5	0.017834583
214	0xbbbcdff0	-0.005764
215	0xbd096fcd	-0.033553887
216	0x3d04fcf1	0.032467786
217	0xbcc811e8	-0.0244226
218	0x3bce826d	0.006302169
219	0x3ce6380a	0.028102893
220	0x3c45fcc4	0.01208419
221	0xbd0dcb6f	-0.034617838
222	0xbcbd0f8e	-0.023078706
223	0x3aa2c893	0.0012419395
224	0x3d10d293	0.03535707
225	0x3cf1cc38	0.029516324
226	0x3abfa053	0.0014619924
227	0x3cfa6e05	0.03057004
228	0x3b28720b	0.002570274
229	0x3d058a29	0.032602463
230	0xbccf9124	-0.025337763
231	0x3cc625a6	0.024187874
232	0x3cf68769	0.030093865
233	0xbce61ec1	-0.028090836
234	0xbd032f2e	-0.032027416
235	0x3c727b9a	0.014799977
236	0xbd04e86a	-0.03244821
237	0x3d01242b	0.031528633
238	0xbc85c919	-0.016331242
239	0x3b7e441c	0.003879792
240	0x3c9136b5	0.017726282
241	0x3c858baa	0.016301949
242	0xbc81e32f	-0.0158554
243	0xbc349b52	-0.011023359
244	0x3b42fbab	0.0029752057
245	0x3b89df9d	0.004207565
246	0x3d0bd97e	0.034142964
247	0x3ca0f424	0.019647665
248	0x3d09b9f4	0.033624604
249	0xbcc195ce	-0.023631003
250	0x3ca9c364	0.020723052
251	0x3ccd1c6a	0.025037963
252	0x3b87f5b1	0.0041491617
253	0x3b0928a1	0.0020928758
254	0xbb55383f	-0.0032534746
255	0x3c186485	0.0093013095

2.bias f4 [64]
0	0x3dd6f5c8	0.10496098
1	0xbd205b3f	-0.03914952
2	0x3cff45ac	0.031161152
3	0x3d95ce8a	0.07314785
4	0xbd5793ec	-0.052631304
5	0xbd22c0c2	-0.03973461
6	0x3d3046ea	0.04303638
7	0xbd80c005	-0.06286625
8	0xbcef9929	-0.029247837
9	0xbd96d66c	-0.073651165
10	0x3dbbd495	0.09171406
11	0xbd87e62a	-0.06635697
12	0x3c71b733	0.014753151
13	0x3d66df52	0.05636532
14	0xbd9ce8ae	-0.07661568
15	0x3d7ab1e9	0.061204825
16	0x3df99547	0.121866755
17	0x3d9892c5	0.07449869
18	0xbce9bd47	-0.028532637
19	0x3d945f45	0.07244734
20	0x3d3667c5	0.044532556
21	0xbd88aec9	-0.066739626
22	0x3ca2f7e4	0.019893594
23	0x3d59243a	0.053013064
24	0xbd94248d	-0.07233534
25	0x3caefd43	0.021360999
26	0xb99439f9	-0.00028271953
27	0xbbd631e4	-0.006536709
28	0xbd715088	-0.05891469
29	0x3c6a79a0	0.014311224
30	0xbbcf5c65	-0.006328153
31	0x3da6822f	0.08130299
32	0x3d8275c2	0.06370117
33	0x3c89a41d	0.016801888
34	0x3d5fd82b	0.054649513
35	0xbd53473a	-0.0515816
36	0x3d770fa2	0.060317643
37	0xbb406f14	-0.0029363083
38	0x3c848e96	0.016181272
39	0x3d001c65	0.03127708
40	0x3d88de79	0.06683058
41	0x3d9b47a3	0.07582023
42	0xbd992c8d	-0.074792005
43	0xbd14f2a0	-0.036364198
44	0xbc6aca58	-0.014330469
45	0xbd17536a	-0.036944784
46	0x3b890491	0.0041814526
47	0xbd8497b3	-0.06474247
48	0x3bdb9f2c	0.0067023244
49	0x3dcca661	0.09992672
50	0xbd8a4eea	-0.06753333
51	0xbd97a68f	-0.074048154
52	0x3c7e8be5	0.015536283
53	0x3c102b66	0.0087994095
54	0xbdaec68b	-0.08533963
55	0xbd6720d2	-0.056427784
56	0x3df87c20	0.1213305
57	0x3d30ecdb	0.043194633
58	0x3df43aa5	0.11925248
59	0x3c39e349	0.011345693
60	0x3d3f0e0b	0.04664425
61	0xbc8cf522	-0.017206732
62	0x3d9a17ec	0.07524094
63	0x3dbc95c4	0.09208253

2.weight f4 [64, 128]
0	0xbcfb1e62	-0.030654136
1	0x3d7093e9	0.058734808
2	0x3e0d7d00	0.13817215
3	0x3e5f8bf7	0.21830736
4	0xbd86d14f	-0.06582891
5	0x3da829b2	0.08211078
6	0xbdcfeb8a	-0.101523474
7	0x3da654d2	0.08121647
8	0x3ddb703d	0.10714767
9	0x3e00b636	0.12569508
10	0xbe028803	-0.12747197
11	0x3e2b2f3f	0.16717242
12	0x3d98e4a3	0.07465484
13	0x3cd95238	0.026528463
14	0xbe1c3751	-0.15255477
15	0x3d82f6fe	0.06394766
16	0xbd890a20	-0.06691384
17	0xbe0247c1	-0.12722684
18	0x3d6db9e6	0.058038615
19	0xbcc57964	-0.024105735
20	0x3cab9fb1	0.02095017
21	0x3dbb74b4	0.09153119
22	0xbd3b7fdb	-0.04577623
23	0x3ca66c8d	0.020315433
24	0xbb4a77cd	-0.003089416
25	0xbe2855b6	-0.16438946
26	0x3dddaee9	0.10824377
27	0x3e7ab1d8	0.24481905
28	0xbd3d40e4	-0.046204463
29	0xbe07477d	-0.13210864
30	0x3d47346d	0.04863398
31	0xbd4f7c03	-0.050655376
32	0x3d4122a0	0.04715216
33	0x3dcd9282	0.1003771
34	0x3db4a222	0.08819987
35	0xbd9b822a	-0.07593186
36	0xbdddd18d	-0.10830984
37	0x3c289b62	0.010290952
38	0x3ce75554	0.02823893
39	0xbac15465	-0.0014749883
40	0xbd4f72a8	-0.050646454
41	0xbd88aaca	-0.066732004
42	0xbddc6706	-0.10761838
43	0xbe332b5d	-0.1749701
44	0x3dbfbfd8	0.09362763
45	0x3de09aa2	0.10966994
46	0x3d810b05	0.0630093
47	0x3e091275	0.13385947
48	0xbd56d96f	-0.052453455
49	0x3da95374	0.082678705
50	0xbcd1450a	-0.025545616
51	0x3cfdc9f1	0.030980082
52	0x3e017a39	0.1264428
53	0x3d57eaab	0.05271403
54	0x3e0a1b0c	0.1348688
55	0xbcee3840	-0.029079556
56	0xb8057d3a	-3.1826297e-05
57	0xbd9c8712	-0.0764295
58	0xbd50de06	-0.050992988
59	0x3d907a7d	0.07054613
60	0xbb8997d9	-0.00419901
61	0xbe1c3090	-0.152529
62	0xbd419bab	-0.047267597
63	0xbca4528b	-0.02005889
64	0x3e370c98	0.17875898
65	0x3c90b845	0.017665992
66	0x3d186676	0.03720709
67	0xbca5e3ce	-0.020250227
68	0xbd319d3e	-0.04336285
69	0xbbc2e5ae	-0.00594779
70	0xbd02a39b	-0.031894308
71	0xbd45d326	-0.04829707
72	0xbb072f94	-0.0020627724
73	0xbd14c04d	-0.036316205
74	0x3df02372	0.11725511
75	0xbd2f24de	-0.04275977
76	0x3d57b1b6	0.052659713
77	0xbdb03cb1	-0.08605326
78	0xbe1be811	-0.15225245
79	0xbd59ee88	-0.053205997
80	0x3df12acf	0.11775743
81	0x3d4a9e1d	0.049467195
82	0xbda15bd2	-0.078788415
83	0x3c1f5f52	0.009727316
84	0x3df20b49	0.11818559
85	0x3db80206	0.08984761
86	0xbe334905	-0.17508323
87	0xbd9946f8	-0.07484239
88	0xbe136f8f	-0.14398025
89	0x3e62f3d3	0.22163324
90	0x3da1dccf	0.07903444
91	0xbd269c76	-0.040676557
92	0xbdcbb0ca	-0.09945829
93	0x3b6e6dfd	0.0036381476
94	0xbd292782	-0.041297443
95	0xbda35b38	-0.07976383
96	0x3d927fe9	0.07153303
97	0x3cd3b6b4	0.025843956
98	0x3dd39bf3	0.10332479
99	0xbcbbe306	-0.022935402
100	0x3e079c15	0.13243134
101	0x3e0b7c03	0.13621525
102	0xbd505e46	-0.050871156
103	0x3cb429a8	0.02199252
104	0x3cc2a14a	0.02375855
105	0x3e1bd150	0.15216565
106	0xbdfcd188	-0.123446524
107	0xbe066d95	-0.1312774
108	0x3d769e96	0.060209833
109	0x3c41c30c	0.011826288
110	0xbe42d002	-0.19024661
111	0xbda20370	-0.07910812
112	0x3daa22be	0.08307408
113	0xbd9483f8	-0.072517335
114	0x3e2ca392	0.16859272
115	0xbd8bb924	-0.06822422
116	0x3daae9b7	0.08345359
117	0xbdf70020	-0.12060571
118	0x3ca1602b	0.019699177
119	0xbdb928dc	-0.090409964
120	0x3d83d44a	0.06436975
121	0xbbd876b9	-0.0066059497
122	0x3e253bfc	0.16136163
123	0xbe3c8f8b	-0.18414132
124	0x3d919764	0.071089536
125	0x3c1a61fb	0.009422774
126	0x3d24cf6c	0.040236875
127	0x3c99b86e	0.0187647
128	0xbd96f2c2	-0.07370521
129	0xbdf2e749	-0.118605204
130	0x3dd9ceaf	0.10635125
131	0x3cb7c7ad	0.02243408
132	0xbcab201a	-0.02088933
133	0xbdd525a2	-0.104075685
134	0xbd5c5d32	-0.053799815
135	0xbc2c8595	-0.010529895
136	0x3de8bc1a	0.113640025
137	0xbca393ea	-0.019967992
138	0xbd90e16a	-0.07074244
139	0x3d918af1	0.07106579
140	0xbcabd249	-0.020974295
141	0x3da7b3b1	0.0818857
142	0x3c4ac4f9	0.0123760635
143	0x3bb5d7ce	0.0055494076
144	0x3ca1ad2b	0.019735893
145	0x3d1c7ae8	0.03820315
146	0x3cbbd147	0.02292694
147	0x39c3f13b	0.0003737303
148	0xbd1f81ee	-0.03894227
149	0x3d866af5	0.06563369
150	0xbd0338e1	-0.032036666
151	0xbe0a2dcb	-0.13494031
152	0xbd73bd25	-0.059506554
153	0x3def4457	0.11682957
154	0xbd507a38	-0.050897807
155	0x3da559cd	0.08073769
156	0xbd5432e3	-0.05180634
157	0x3dd07358	0.1017825
158	0x3d9ba3d3	0.07599606
159	0xbac7baa3	-0.0015238117
160	0xbd2adb17	-0.041712847
161	0xbd470906	-0.04859259
162	0x3d0ac835	0.03388234
163	0x3d88e4c0	0.066842556
164	0xbd80c0c0	-0.06286764
165	0xbdb0682d	-0.0861362
166	0x3ca1cce8	0.019751027
167	0x3d5c6ae2	0.05381287
168	0x3d542e7b	0.05180214
169	0x3c35000a	0.011047373
170	0xbd38a9fa	-0.045083977
171	0xbaf97e6c	-0.0019034869
172	0xbc6f0fa6	-0.014591133
173	0x3dd4b274	0.103856
174	0xbd2413eb	-0.040058058
175	0xbd3b022b	-0.045656364
176	0xbd72de71	-0.059294168
177	0xbc3e12f7	-0.011601201
178	0x3c1ac7ea	0.009447077
179	0xbdf95c62	-0.12175824
180	0xbdba0196	-0.09082334
181	0x3d98524f	0.07437574
182	0xbe01486e	-0.12625286
183	0xbdd84f47	-0.10561996
184	0xbccf8fd6	-0.025337141
185	0x3dbe62b9	0.092961736
186	0x3d6bf4b1	0.057606403
187	0x3db2eb6b	0.08736309
188	0xbe14b348	-0.14521515
189	0xbdd6f94c	-0.10496768
190	0xbcf1285a	-0.029438186
191	0xbc328aa7	-0.010897315
192	0x3d254b00	0.04035473
193	0x3d069dcb	0.032865327
194	0x3d5b075e	0.053473823
195	0xbd98b1bc	-0.07455775
196	0xbdb42973	-0.08796968
197	0xbdb8b635	-0.09019128
198	0x3e50d69b	0.20394365
199	0xbd8e4a10	-0.0694772
200	0xbc5a59cc	-0.013327073
201	0xbd037d4f	-0.032101925
202	0xbe023b7a	-0.12718001
203	0x3d01633e	0.031588785
204	0x3d087a0e	0.033319525
205	0x3d73c4fa	0.059514023
206	0xbccfacea	-0.025351007
207	0x3de4f43b	0.11179396
208	0xbe103488	-0.14082539
209	0xbdbbd26a	-0.09170993
210	0x3da2e2e6	0.07953434
211	0x3cf1cb00	0.029515743
212	0x3e00ca18	0.12577093
213	0xbdbd76d8	-0.09251183
214	0x3d8a0095	0.06738392
215	0xbaeb139c	-0.0017934921
216	0x3da3ca90	0.0799762
217	0x3d6e5a13	0.05819137
218	0x3b9c7ff0	0.0047759935
219	0xbcd2b32e	-0.025720205
220	0x3e1b08bf	0.15140055
221	0x3daadf2f	0.0834335
222	0xbc3fa407	-0.011696822
223	0x3d26559f	0.040609
224	0xbda758b1	-0.081712134
225	0xbcc612ab	-0.024178823
226	0xbdb89677	-0.09013074
227	0xbc43c7e2	-0.011949511
228	0xbdbed9ce	-0.09318887
229	0xbdbdfbc9	-0.0927654
230	0xbdb97835	-0.09056131
231	0xbc3415f4	-0.010991562
232	0xbd81d7ff	-0.06340026
233	0x3ca6d5df	0.020365654
234	0x3e2a6cf0	0.16643119
235	0x3d882c0b	0.066490255
236	0xbde052f2	-0.109533206
237	0x3d02c581	0.031926636
238	0x3d4ef247	0.050524022
239	0xbd9aef86	-0.07565217
240	0x3dcd118a	0.10013111
241	0x3daa8c2f	0.08327519
242	0x3e0f6c75	0.14006217
243	0x3d9bfaf7	0.07616227
244	0x3dc0cc29	0.094139405
245	0xbd423683	-0.047415268
246	0x3de81ff5	0.1133422
247	0x3d3db622	0.046316274
248	0xbd959f87	-0.07305818
249	0xbc7b2ea4	-0.015330944
250	0x3d9028c9	0.07039029
251	0x3d7cfb4f	0.061763104
252	0xbd8a6ecc	-0.06759414
253	0xbdf331ff	-0.118747704
254	0xbc7430c8	-0.0149042085
255	0xbd993e19	-0.07482547

4.bias f4 [10]
0	0xbda6b713	-0.081403874
1	0xbd83cf61	-0.06436039
2	0xbd5f4c05	-0.054515857
3	0x3c81d733	0.015849685
4	0x3daec0bf	0.08532857
5	0x3c8e06f6	0.017337304
6	0x3d646745	0.055762548
7	0xbdd75e5b	-0.10516044
8	0x3d2f91bc	0.042863593
9	0xbcccdbab	-0.02500709

4.weight f4 [10, 64]
0	0x3dda4c65	0.10659102
1	0xbe54be8c	-0.20775813
2	0xbd8128f2	-0.06306638
3	0xbd0efdec	-0.034910128
4	0xbea2fac4	-0.31831944
5	0xbe2d80b6	-0.1694363
6	0x3e1b81ef	0.15186284
7	0xbea137d1	-0.31487897
8	0xbe0f9f79	-0.14025678
9	0xbc869709	-0.016429441
10	0x3d9386d4	0.07203451
11	0x3e1fa08b	0.15588586
12	0xbeb85a0d	-0.36006203
13	0xbdb4efbc	-0.08834788
14	0xbdb1f3ec	-0.086891025
15	0x3d4fb36e	0.050708227
16	0x3e2e4ba2	0.17021039
17	0x3eb903a4	0.3613559
18	0x3d9c99f0	0.07646549
19	0xbe36cca4	-0.17851502
20	0x3e0bc269	0.1364838
21	0x3d8b11c6	0.067904994
22	0x3edd5665	0.43229976
23	0xbdaa1a9f	-0.08305859
24	0x3df6782c	0.1203464
25	0xbd1d760f	-0.038442668
26	0xbdd4c816	-0.10389726
27	0xbea02017	-0.31274483
28	0x3e27d7c9	0.16390909
29	0x3e840039	0.2578142
30	0x3ec0c7be	0.3765239
31	0xbe49b827	-0.19699155
32	0x3d88a402	0.06671907
33	0xbd7ff542	-0.062489755
34	0xbea1e063	-0.31616506
35	0xbe0785c7	-0.13234626
36	0xbe56e708	-0.20986569
37	0xbe41fb24	-0.18943459
38	0x3d5b6792	0.05356557
39	0x3d195926	0.037438534
40	0xbe934bbb	-0.28768715
41	0x3eefe22a	0.46852237
42	0xbdf3fe10	-0.11913693
43	0x3ebd3ae5	0.36958995
44	0xbdde5d12	-0.108575955
45	0xbec25bce	-0.37960666
46	0x3e4dd730	0.20101619
47	0x3da76458	0.08173436
48	0x3db3ddf0	0.087825656
49	0x3ea45314	0.32094634
50	0x3d89a8d8	0.067216575
51	0xbd889a38	-0.0667004
52	0x3d93e802	0.07221986
53	0xbd7d940d	-0.06190877
54	0x3e6e7da8	0.23290122
55	0xbe9cb36f	-0.30605647
56	0xbeb60462	-0.3555022
57	0x3d9aa1c1	0.07550383
58	0xbef53b90	-0.47897005
59	0xbe9679cd	-0.29389802
60	0xbe2907cb	-0.16506879
61	0x3851a27a	4.99808e-05
62	0x3df1c695	0.11805455
63	0xbe99ffbb	-0.3007792
64	0xbef69904	-0.48163617
65	0xbde4b049	-0.11166436
66	0x3cac639a	0.021043587
67	0xbe690239	-0.22754754
68	0xbe53ccfc	-0.20683664
69	0xbeb52a82	-0.35383993
70	0xbe11abc7	-0.14225684
71	0xbe189a8d	-0.14902706
72	0x3eafd7d2	0.34344345
73	0xbd92fc1b	-0.071769916
74	0xbec94fcd	-0.39318696
75	0xbcab98e1	-0.020946922
76	0x3e7131bf	0.23554133
77	0x3e26a135	0.16272433
78	0x3f1301ca	0.57424605
79	0x3e8fa92d	0.28058758
80	0x3ca68383	0.020326382
81	0xbd5cd518	-0.05391416
82	0x3e2015f8	0.1563338
83	0x3e09fee6	0.13476142
84	0xbdddca86	-0.10829644
85	0x3e51b7c7	0.20480262
86	0xbe827a3d	-0.25483885
87	0x3f0a8866	0.5411438
88	0xbe04d4a2	-0.12971738
89	0xbd6e3574	-0.058156446
90	0x3e9d22f7	0.3069074
91	0x3f004d4b	0.5011794
92	0x3e014472	0.12623766
93	0xbda3c356	-0.07996242
94	0xbe14a095	-0.14514382
95	0x3c1e274f	0.009652927
96	0xbe778ad6	-0.24174055
97	0x3cf4d24e	0.029885437
98	0x3ec1dec7	0.37865278
99	0x3dc75608	0.09733206
100	0x3c9d03ca	0.019166846
101	0x3c1a332e	0.009411616
102	0x3e46101f	0.19342087
103	0x3e7da4a3	0.24769835
104	0xbeb4ad9b	-0.352887
105	0xbe21d0e2	-0.15802339
106	0xbc885fc7	-0.016647233
107	0xbea64fd2	-0.32482773
108	0x3df4fb62	0.1196201
109	0xbe943d72	-0.2895313
110	0x3e006318	0.12537801
111	0xbe021959	-0.12704982
112	0x3cd4a557	0.025957746
113	0xbec50f14	-0.38488066
114	0x3d6d9c89	0.05801061
115	0x3d63bcc6	0.05559995
116	0x3e87abc2	0.26498228
117	0xbe9e588f	-0.3092694
118	0xbd2b74a6	-0.04185929
119	0x3e8d640d	0.27615395
120	0x3e463e05	0.19359596
121	0x3df07b15	0.11742226
122	0x3e48fad7	0.19626938
123	0x3d36291a	0.04447279
124	0x3d428dc8	0.047498494
125	0x3d614766	0.05499973
126	0x3eb029f8	0.3440702
127	0x3e446043	0.19177346
128	0x3d759620	0.059957623
129	0x3db39585	0.08768753
130	0xbeb127dc	-0.34600723
131	0x3db7f78d	0.089827634
132	0xbf04d90e	-0.518937
133	0x3eb98dba	0.3624094
134	0x3ec1e7de	0.37872213
135	0x3e13b2d7	0.1442369
136	0xbe0ccc35	-0.13749774
137	0x3d90da47	0.07072883
138	0x3d85d1c9	0.06534154
139	0xbdf043e8	-0.11731702
140	0xbdd05d54	-0.10174051
141	0x3e9efb82	0.3105126
142	0xbeaf14af	-0.34195468
143	0x3da8571d	0.082197405
144	0xbe203f2e	-0.15649101
145	0x3d1e2c93	0.038616728
146	0xbe1846c0	-0.14870739
147	0xbe144128	-0.1447798
148	0x3f0bd8e6	0.54627836
149	0x3e90abed	0.2825617
150	0xbd6c6e3b	-0.05772231
151	0x3dd2546e	0.1027001
152	0xbd0c7a75	-0.03429647
153	0xbbd5f793	-0.0065297573
154	0x3dc4eb98	0.096152484
155	0x3ea48047	0.32129118
156	0x3d80fe52	0.06298508
157	0x3e8f55a3	0.27995023
158	0x3ef2cbd0	0.47421122
159	0x3e29e3a2	0.16590741
160	0xbefd8be4	-0.4952079
161	0x3eb2f698	0.3495376
162	0x3e768d6e	0.24077389
163	0x3e9ab2e5	0.3021461
164	0xbe8a466c	-0.27006853
165	0x3e0880c7	0.13330375
166	0x3df1f03f	0.118134014
167	0xbdceb564	-0.10093191
168	0xbecaf8e1	-0.39643005
169	0xbd159010	-0.03651434
170	0xbdeab1fe	-0.114597306
171	0xbe83e9f4	-0.2576443
172	0xbbd17821	-0.0063924943
173	0x3e554a2c	0.20829076
174	0xbe85b458	-0.26114154
175	0xbe1fec80	-0.15617561
176	0x3d843c38	0.06456798
177	0x3cf657f6	0.03007124
178	0xbdb90b29	-0.09035332
179	0xbc39f464	-0.011349771
180	0x3e46d546	0.19417295
181	0x3f065463	0.52472514
182	0x3cf32ae0	0.02968353
183	0xbeaa4366	-0.33254546
184	0xbe5a4f92	-0.21319416
185	0x3e32fb3d	0.17478652
186	0x3e8211f3	0.2540432
187	0x3badea0b	0.005307441
188	0xbd986e5c	-0.074429244
189	0xbddeef7a	-0.1088552
190	0x3dc66fdf	0.096893065
191	0x3d412ff7	0.047164883
192	0xbef85ee2	-0.4850989
193	0x3c9a1b00	0.018811703
194	0x3e8e45a3	0.27787504
195	0x3efbdad4	0.4919039
196	0x3ec37c25	0.38180652
197	0x3e61bc41	0.2204447
198	0xbd530902	-0.051522262
199	0x3e402fec	0.1876828
200	0x3e44b221	0.19208576
201	0xbce82433	-0.028337574
202	0x3e62d149	0.22150148
203	0x3d09c2ae	0.033632927
204	0xbe099358	-0.13435113
205	0x3d85399e	0.0650513
206	0xbe8cde5c	-0.27513397
207	0x3d570a09	0.052499805
208	0xbefe58d0	-0.49677134
209	0x3da5c598	0.08094329
210	0xbe848fad	-0.25890866
211	0x3db42b16	0.087972805
212	0xbe9dbe38	-0.30809188
213	0x3e38e79f	0.18057106
214	0xbdfc0665	-0.12305907
215	0x3eaf24a4	0.34207642
216	0x3de10225	0.10986737
217	0x3dc1991d	0.09453032
218	0xbea37b3e	-0.31929964
219	0xbe4fde9b	-0.20299761
220	0x3e361649	0.17781939
221	0x3e344752	0.17605332
222	0x3c968788	0.018375173
223	0xbe3601ab	-0.17774074
224	0x3daa3717	0.08311289
225	0xbe7830e7	-0.24237405
226	0x3ed06e4e	0.40709156
227	0x3e05e9bb	0.13077442
228	0x3ec1cbcc	0.37850797
229	0xbd8fa16f	-0.07013213
230	0xbec67791	-0.38763097
231	0xbc8644f3	-0.0163903
232	0x3e58f66a	0.2118775
233	0x3e883af8	0.2660749
234	0x3e043ef8	0.12914646
235	0xbe68aa5a	-0.22721234
236	0x3da1e31f	0.07904648
237	0x3ea40814	0.32037413
238	0x3db457c3	0.08805802
239	0xbe7a4436	-0.24440083
240	0x3e12c3e8	0.14332545
241	0xbe74169f	-0.23836754
242	0x3e07697e	0.13223836
243	0xbd924a36	-0.07143061
244	0x3e31667a	0.17324248
245	0xbe86d5d7	-0.26335022
246	0xbe478c42	-0.19487098
247	0x3e5e3ba3	0.21702437
248	0xbefd369a	-0.4945572
249	0xbd422408	-0.047397643
250	0xbc6c5724	-0.014425073
251	0xbc90ec75	-0.017690876
252	0xbd11336b	-0.035449427
253	0xbd745255	-0.05964883
254	0xbdf0b286	-0.11752801
255	0x3edf918a	0.43665725
